…
size_filter         19
hostname            172.16.50.177
time_stamp          1564051267
save_model          
original_dim        784
n_labels            10
[INFO] Training Chromosome 38 Generation 0
[INFO] Building Predictor
[INFO] Building Encoder
[INFO] Building Decoder
__________________________________________________________________________________________________
Layer (type)                    Output Shape         Param #     Connected to                     
==================================================================================================
input_layer (InputLayer)        (128, 784, 1)        0                                            
__________________________________________________________________________________________________
dnn_conv1d_0 (Conv1D)           (128, 784, 19)       152         input_layer[0][0]                
__________________________________________________________________________________________________
dnn_conv1d_1 (Conv1D)           (128, 784, 19)       2546        dnn_conv1d_0[0][0]               
__________________________________________________________________________________________________
dnn_conv1d_2 (Conv1D)           (128, 784, 19)       2546        dnn_conv1d_1[0][0]               
__________________________________________________________________________________________________
dnn_conv1d_3 (Conv1D)           (128, 784, 19)       2546        dnn_conv1d_2[0][0]               
__________________________________________________________________________________________________
flatten_1 (Flatten)             (128, 14896)         0           dnn_conv1d_3[0][0]               
__________________________________________________________________________________________________
dense_1 (Dense)                 (128, 127)           1891919     flatten_1[0][0]                  
__________________________________________________________________________________________________
dense_2 (Dense)                 (128, 127)           16256       dense_1[0][0]                    
__________________________________________________________________________________________________
dense_3 (Dense)                 (128, 127)           16256       dense_2[0][0]                    
__________________________________________________________________________________________________
dnn_latent_mean (Dense)         (128, 9)             1152        dense_3[0][0]                    
__________________________________________________________________________________________________
dnn_latent_log_var (Dense)      (128, 9)             1152        dense_3[0][0]                    
__________________________________________________________________________________________________
dnn_latent_layer (Lambda)       (128, 10, 1)         0           dnn_latent_mean[0][0]            
                                                                 dnn_latent_log_var[0][0]         
__________________________________________________________________________________________________
data_input_w_dnn_latent_out (Co (128, 794, 1)        0           input_layer[0][0]                
                                                                 dnn_latent_layer[0][0]           
__________________________________________________________________________________________________
enc_conv1d_0 (Conv1D)           (128, 794, 19)       152         data_input_w_dnn_latent_out[0][0]
__________________________________________________________________________________________________
enc_conv1d_1 (Conv1D)           (128, 794, 19)       2546        enc_conv1d_0[0][0]               
__________________________________________________________________________________________________
enc_conv1d_2 (Conv1D)           (128, 794, 19)       2546        enc_conv1d_1[0][0]               
__________________________________________________________________________________________________
enc_conv1d_3 (Conv1D)           (128, 794, 19)       2546        enc_conv1d_2[0][0]               
__________________________________________________________________________________________________
flatten_2 (Flatten)             (128, 15086)         0           enc_conv1d_3[0][0]               
__________________________________________________________________________________________________
dense_4 (Dense)                 (128, 33)            497871      flatten_2[0][0]                  
__________________________________________________________________________________________________
vae_latent_mean (Dense)         (128, 238)           8092        dense_4[0][0]                    
__________________________________________________________________________________________________
vae_latent_log_var (Dense)      (128, 238)           8092        dense_4[0][0]                    
__________________________________________________________________________________________________
vae_latent_sampling (Lambda)    (128, 238)           0           vae_latent_mean[0][0]            
                                                                 vae_latent_log_var[0][0]         
__________________________________________________________________________________________________
reshape_3 (Reshape)             (128, 238, 1)        0           vae_latent_sampling[0][0]        
__________________________________________________________________________________________________
dnn_latent_out_w_prev_w_vae_lat (128, 248, 1)        0           dnn_latent_layer[0][0]           
                                                                 reshape_3[0][0]                  
__________________________________________________________________________________________________
reshape_4 (Reshape)             (128, 248)           0           dnn_latent_out_w_prev_w_vae_lat[0
__________________________________________________________________________________________________
dense_5 (Dense)                 (128, 33)            8217        reshape_4[0][0]                  
__________________________________________________________________________________________________
dense_6 (Dense)                 (128, 784)           26656       dense_5[0][0]                    
__________________________________________________________________________________________________
reshape_5 (Reshape)             (128, 784, 1)        0           dense_6[0][0]                    
__________________________________________________________________________________________________
dec_conv1dT_0 (Sequential)      (128, 784, 19)       152         reshape_5[0][0]                  
__________________________________________________________________________________________________
dec_conv1dT_1 (Sequential)      (128, 784, 19)       2546        dec_conv1dT_0[1][0]              
__________________________________________________________________________________________________
dec_conv1dT_2 (Sequential)      (128, 784, 19)       2546        dec_conv1dT_1[1][0]              
__________________________________________________________________________________________________
dec_conv1dT_3 (Sequential)      (128, 784, 19)       2546        dec_conv1dT_2[1][0]              
__________________________________________________________________________________________________
pre_vae_latent_args (Concatenat (128, 476)           0           vae_latent_mean[0][0]            
                                                                 vae_latent_log_var[0][0]         
__________________________________________________________________________________________________
vae_reconstruction (Sequential) (128, 784, 1)        58          dec_conv1dT_3[1][0]              
__________________________________________________________________________________________________
dnn_latent_mod (Lambda)         (128, 10, 1)         0           dnn_latent_layer[0][0]           
__________________________________________________________________________________________________
vae_latent_args (Reshape)       (128, 476, 1)        0           pre_vae_latent_args[0][0]        
==================================================================================================
Total params: 2,499,091
Trainable params: 2,499,091
Non-trainable params: 0
__________________________________________________________________________________________________
__________________________________________________________________________________________________
Layer (type)                    Output Shape         Param #     Connected to                     
==================================================================================================
input_layer (InputLayer)        (128, 784, 1)        0                                            
__________________________________________________________________________________________________
dnn_conv1d_0 (Conv1D)           (128, 784, 19)       152         input_layer[0][0]                
__________________________________________________________________________________________________
dnn_conv1d_1 (Conv1D)           (128, 784, 19)       2546        dnn_conv1d_0[0][0]               
__________________________________________________________________________________________________
dnn_conv1d_2 (Conv1D)           (128, 784, 19)       2546        dnn_conv1d_1[0][0]               
__________________________________________________________________________________________________
dnn_conv1d_3 (Conv1D)           (128, 784, 19)       2546        dnn_conv1d_2[0][0]               
__________________________________________________________________________________________________
flatten_1 (Flatten)             (128, 14896)         0           dnn_conv1d_3[0][0]               
__________________________________________________________________________________________________
dense_1 (Dense)                 (128, 127)           1891919     flatten_1[0][0]                  
__________________________________________________________________________________________________
dense_2 (Dense)                 (128, 127)           16256       dense_1[0][0]                    
__________________________________________________________________________________________________
dense_3 (Dense)                 (128, 127)           16256       dense_2[0][0]                    
__________________________________________________________________________________________________
dnn_latent_mean (Dense)         (128, 9)             1152        dense_3[0][0]                    
__________________________________________________________________________________________________
dnn_latent_log_var (Dense)      (128, 9)             1152        dense_3[0][0]                    
__________________________________________________________________________________________________
dnn_latent_layer (Lambda)       (128, 10, 1)         0           dnn_latent_mean[0][0]            
                                                                 dnn_latent_log_var[0][0]         
__________________________________________________________________________________________________
data_input_w_dnn_latent_out (Co (128, 794, 1)        0           input_layer[0][0]                
                                                                 dnn_latent_layer[0][0]           
__________________________________________________________________________________________________
enc_conv1d_0 (Conv1D)           (128, 794, 19)       152         data_input_w_dnn_latent_out[0][0]
__________________________________________________________________________________________________
enc_conv1d_1 (Conv1D)           (128, 794, 19)       2546        enc_conv1d_0[0][0]               
__________________________________________________________________________________________________
enc_conv1d_2 (Conv1D)           (128, 794, 19)       2546        enc_conv1d_1[0][0]               
__________________________________________________________________________________________________
enc_conv1d_3 (Conv1D)           (128, 794, 19)       2546        enc_conv1d_2[0][0]               
__________________________________________________________________________________________________
flatten_2 (Flatten)             (128, 15086)         0           enc_conv1d_3[0][0]               
__________________________________________________________________________________________________
dense_4 (Dense)                 (128, 33)            497871      flatten_2[0][0]                  
__________________________________________________________________________________________________
vae_latent_mean (Dense)         (128, 238)           8092        dense_4[0][0]                    
__________________________________________________________________________________________________
vae_latent_log_var (Dense)      (128, 238)           8092        dense_4[0][0]                    
__________________________________________________________________________________________________
vae_latent_sampling (Lambda)    (128, 238)           0           vae_latent_mean[0][0]            
                                                                 vae_latent_log_var[0][0]         
__________________________________________________________________________________________________
reshape_3 (Reshape)             (128, 238, 1)        0           vae_latent_sampling[0][0]        
__________________________________________________________________________________________________
dnn_latent_out_w_prev_w_vae_lat (128, 248, 1)        0           dnn_latent_layer[0][0]           
                                                                 reshape_3[0][0]                  
__________________________________________________________________________________________________
reshape_4 (Reshape)             (128, 248)           0           dnn_latent_out_w_prev_w_vae_lat[0
__________________________________________________________________________________________________
dense_5 (Dense)                 (128, 33)            8217        reshape_4[0][0]                  
__________________________________________________________________________________________________
dense_6 (Dense)                 (128, 784)           26656       dense_5[0][0]                    
__________________________________________________________________________________________________
reshape_5 (Reshape)             (128, 784, 1)        0           dense_6[0][0]                    
__________________________________________________________________________________________________
dec_conv1dT_0 (Sequential)      (128, 784, 19)       152         reshape_5[0][0]                  
__________________________________________________________________________________________________
dec_conv1dT_1 (Sequential)      (128, 784, 19)       2546        dec_conv1dT_0[1][0]              
__________________________________________________________________________________________________
dec_conv1dT_2 (Sequential)      (128, 784, 19)       2546        dec_conv1dT_1[1][0]              
__________________________________________________________________________________________________
dec_conv1dT_3 (Sequential)      (128, 784, 19)       2546        dec_conv1dT_2[1][0]              
__________________________________________________________________________________________________
pre_vae_latent_args (Concatenat (128, 476)           0           vae_latent_mean[0][0]            Device mapping:
/job:localhost/replica:0/task:0/device:XLA_CPU:0 -> device: XLA_CPU device
/job:localhost/replica:0/task:0/device:GPU:0 -> device: 0, name: GeForce GTX 980, pci bus id: 0000:03:00.0, compute capability: 5.2
/job:localhost/replica:0/task:0/device:XLA_GPU:0 -> device: XLA_GPU device
dnn_conv1d_0/random_uniform/RandomUniform: (RandomUniform): /job:localhost/replica:0/task:0/device:GPU:0
…
